…
es_grad=True)', 'target_update_interval': 1, 'ent_coef_optimizer': 'Adam (\nParameter Group 0\n    amsgrad: False\n    betas: (0.9, 0.999)\n    capturable: False\n    decoupled_weight_decay: False\n    differentiable: False\n    eps: 1e-08\n    foreach: None\n    fused: None\n    lr: 0.0003\n    maximize: False\n    weight_decay: 0\n)', 'lr_schedule': '<function get_schedule_fn.<locals>.<lambda> at 0x117733b00>', 'policy': 'SACPolicy(\n  (actor): Actor(\n    (features_extractor): FlattenExtractor(\n      (flatten): Flatten(start_dim=1, end_dim=-1)\n    )\n    (latent_pi): Sequential(\n      (0): Linear(in_features=11, out_features=256, bias=True)\n      (1): ReLU()\n      (2): Linear(in_features=256, out_features=256, bias=True)\n      (3): ReLU()\n    )\n    (mu): Linear(in_features=256, out_features=3, bias=True)\n    (log_std): Linear(in_features=256, out_features=3, bias=True)\n  )\n  (critic): ContinuousCritic(\n    (features_extractor): FlattenExtractor(\n      (flatten): Flatten(start_dim=1, end_dim=-1)\n    )\n    (qf0): Sequential(\n      (0): Linear(in_features=14, out_features=256, bias=True)\n      (1): ReLU()\n      (2): Linear(in_features=256, out_features=256, bias=True)\n      (3): ReLU()\n      (4): Linear(in_features=256, out_features=1, bias=True)\n    )\n    (qf1): Sequential(\n      (0): Linear(in_features=14, out_features=256, bias=True)\n      (1): ReLU()\n      (2): Linear(in_features=256, out_features=256, bias=True)\n      (3): ReLU()\n      (4): Linear(in_features=256, out_features=1, bias=True)\n    )\n  )\n  (critic_target): ContinuousCritic(\n    (features_extractor): FlattenExtractor(\n      (flatten): Flatten(start_dim=1, end_dim=-1)\n    )\n    (qf0): Sequential(\n      (0): Linear(in_features=14, out_features=256, bias=True)\n      (1): ReLU()\n      (2): Linear(in_features=256, out_features=256, bias=True)\n      (3): ReLU()\n      (4): Linear(in_features=256, out_features=1, bias=True)\n    )\n    (qf1): Sequential(\n      (0): Linear(in_features=14, out_features=256, bias=True)\n      (1): ReLU()\n      (2): Linear(in_features=256, out_features=256, bias=True)\n      (3): ReLU()\n      (4): Linear(in_features=256, out_features=1, bias=True)\n    )\n  )\n)', 'actor': 'Actor(\n  (features_extractor): FlattenExtractor(\n    (flatten): Flatten(start_dim=1, end_dim=-1)\n  )\n  (latent_pi): Sequential(\n    (0): Linear(in_features=11, out_features=256, bias=True)\n    (1): ReLU()\n    (2): Linear(in_features=256, out_features=256, bias=True)\n    (3): ReLU()\n  )\n  (mu): Linear(in_features=256, out_features=3, bias=True)\n  (log_std): Linear(in_features=256, out_features=3, bias=True)\n)', 'critic': 'ContinuousCritic(\n  (features_extractor): FlattenExtractor(\n    (flatten): Flatten(start_dim=1, end_dim=-1)\n  )\n  (qf0): Sequential(\n    (0): Linear(in_features=14, out_features=256, bias=True)\n    (1): ReLU()\n    (2): Linear(in_features=256, out_features=256, bias=True)\n    (3): ReLU()\n    (4): Linear(in_features=256, out_features=1, bias=True)\n  )\n  (qf1): Sequential(\n    (0): Linear(in_features=14, out_features=256, bias=True)\n    (1): ReLU()\n    (2): Linear(in_features=256, out_features=256, bias=True)\n    (3): ReLU()\n    (4): Linear(in_features=256, out_features=1, bias=True)\n  )\n)', 'critic_target': 'ContinuousCritic(\n  (features_extractor): FlattenExtractor(\n    (flatten): Flatten(start_dim=1, end_dim=-1)\n  )\n  (qf0): Sequential(\n    (0): Linear(in_features=14, out_features=256, bias=True)\n    (1): ReLU()\n    (2): Linear(in_features=256, out_features=256, bias=True)\n    (3): ReLU()\n    (4): Linear(in_features=256, out_features=1, bias=True)\n  )\n  (qf1): Sequential(\n    (0): Linear(in_features=14, out_features=256, bias=True)\n    (1): ReLU()\n    (2): Linear(in_features=256, out_features=256, bias=True)\n    (3): ReLU()\n    (4): Linear(in_features=256, out_features=1, bias=True)\n  )\n)', 'batch_norm_stats': '[]', 'batch_norm_stats_target': '[]', '_logger': '<stable_baselines3.common.logger.Logger object at 0x1643d2690>'}
2025-05-14 17:37:18,043 INFO    MainThread:16830 [sb3.py:save_model():147] [no run ID] Saving model checkpoint to ./wandb_models/ji7ysaj7/model.zip
2025-05-14 17:42:54,999 INFO    MainThread:16830 [sb3.py:save_model():147] [no run ID] Saving model checkpoint to ./wandb_models/ji7ysaj7/model.zip
…
